benchmarks-data/benchmarks-data-tmp/400.inference/412.rnn-gen-char/model/rnn_model.pth (torch, 200924 bytes, 6 tensors)

i2h.weight f4 [128, 205]
000000 f5 37 18 3e e1 80 30 bd 45 c8 e9 bd 01 f1 70 bd
       0.14865096 -0.04309166 -0.114151515 -0.05882359
000010 5c 33 95 bd db 0d 8a bd fb 25 d4 bd e2 49 c5 bd
       -0.07285187 -0.06740924 -0.10358807 -0.09633233
000020 06 e9 2a 3e 20 14 75 3d ed ce 8e bd bf a9 77 bc
       0.16690454 0.059833646 -0.06973062 -0.015116154
000030 c3 84 30 bb a2 6e 41 bd 34 d3 3c bd d3 ca e1 bd
       -0.00269346 -0.04722465 -0.046099856 -0.11025014
000040 01 70 18 3d 2d 47 61 bd 22 70 e8 bd b1 e3 1d 3d
       0.03721619 -0.05499952 -0.11349513 0.03854722
000050 06 6d 4b be 1a 6e 93 bc 21 56 09 bd 4e b8 af 3d
       -0.19865808 -0.017996836 -0.033529405 0.08580075
000060 c9 eb a5 bd fa 6a f7 3d 1f 64 22 3d 40 38 1d bd
       -0.08101613 0.12080951 0.039646264 -0.038383722
000070 85 3a 38 bd 1f 79 73 bd 6e be c0 3d 12 c6 b8 bd
       -0.044977684 -0.059441682 0.094113216 -0.09022154
000080 20 23 bc 39 1b 45 62 3b 33 84 36 bd 89 e0 8a bd
       0.00035884324 0.0034526053 -0.04455967 -0.06781108
000090 7d 30 f6 bd b5 bc 77 bd 37 88 57 bc 95 62 a1 3d
       -0.12020967 -0.0604827 -0.013155035 0.07880131
0000a0 c2 31 21 bc 3d f5 63 3b 33 bc 55 3d 55 c0 c4 3d
       -0.009838523 0.0034783625 0.052181434 0.09606997
0000b0 6d 8c e5 bd 82 1a 19 bd 99 04 c1 bd 10 81 9f 3c
       -0.11208425 -0.037378795 -0.09424705 0.019470721
0000c0 7d b5 ce bc c3 e6 d4 bc 54 f6 54 3d fb 9f f7 3d
       -0.025233025 -0.025988942 0.05199273 0.12091061
0000d0 79 72 93 bd 1b 48 af 3d bd a4 6c 3c e7 c8 36 3d
       -0.07199568 0.08558675 0.014443574 0.04462519
0000e0 f8 19 ba bc c6 85 8e bd ad bf 81 3d 43 c0 67 bd
       -0.022717461 -0.06959109 0.063353874 -0.05657984
0000f0 75 e1 94 bb 15 0c c6 bd d8 a9 0d be 6b ed bc 3b
       -0.004543478 -0.09670273 -0.13834321 0.005765607
000100 dc 1f 2d 3d 87 bb 61 bd 1e d9 fb 3c 6b 75 b3 3c
       0.04226671 -0.05511048 0.030743178 0.021906575
000110 b2 d8 03 bb 04 1e 9d bd c5 04 a3 3d 1e 01 55 3d
       -0.0020118174 -0.07671741 0.07959894 0.05200302
000120 16 ba e7 bc 9e b6 94 3c e3 a5 3e 3d 9f 10 3f 3d
       -0.028286975 0.018153485 0.04654492 0.04664671
000130 f8 bb 5a bd e3 48 69 3d e0 b7 88 3d 85 58 96 bd
       -0.053401917 0.056954276 0.066756964 -0.073411025
000140 e6 8b 0e 3d 0b 0d 65 bd ab 3e 17 3d 22 07 9b bc
       0.034801386 -0.055920642 0.036925 -0.0189243
000150 9b 77 84 3d 76 39 7b 3d e3 97 14 3d 86 a3 87 bb
       0.064681254 0.061334096 0.036277663 -0.0041393666
000160 5c a9 5d 3c d9 50 4c 3c 0d 5a 6c bd d0 42 92 bb
       0.013529148 0.012470447 -0.057703067 -0.004463531
000170 35 ac 7b 3d bf d7 8d bd 95 93 cd bc 88 2e 96 39
       0.061443526 -0.06925916 -0.025094787 0.00028644898
000180 b4 c9 ce 3d dc c8 51 bd e3 e2 00 3c 06 9d e1 3c
       0.100970656 -0.051216945 0.007866594 0.027540695
000190 34 a7 2f 39 b8 1f 82 3c e1 99 d3 ba 5f c1 48 3d
       0.00016751589 0.015884265 -0.0016143882 0.049012538
0001a0 7e 08 6e bd 78 54 b1 bc aa 4c b1 3c 81 b5 9e 3c
       -0.058113568 -0.021646723 0.021643002 0.019373657
0001b0 b2 9a bd bd 3e 63 a2 bd ea 34 a5 bc c5 96 19 bd
       -0.092580214 -0.07929085 -0.020166833 -0.0374973
0001c0 f1 8a 18 3c 50 e6 91 bc 31 fe 28 bd 42 bf fe bc
       0.00931047 -0.017810017 -0.04125804 -0.031097058
0001d0 af d8 66 bc 5d c7 34 3c 06 19 d0 3d 53 d1 65 3d
       -0.014089747 0.01103386 0.10161023 0.05610783
0001e0 5f b4 77 bd 42 43 c6 bb 69 8c 05 3c 24 f4 0b bd
       -0.06047475 -0.006050498 0.008151152 -0.034168378
0001f0 c9 ab 48 3d 96 b3 89 bb 02 ef 8b bd 67 a0 13 3d
       0.048991952 -0.0042023165 -0.068326965 0.036041643
000200 14 24 1d 3d d8 78 7e bd 8d fb fb 3b 0d 41 6e 3c
       0.038364485 -0.062126964 0.0076898993 0.0145418765
000210 36 68 3b 3d 5c 8e 36 bd 9e a6 4a 3d 76 23 c7 3c
       0.04575368 -0.04456936 0.049475305 0.024308901
000220 55 cd 36 3d 5d 54 85 bc 5d 68 2c bd be 56 1b bd
       0.044629414 -0.01627558 -0.042091716 -0.03792452
000230 ac 28 7d bc d0 e4 68 bd 9e 95 6f bd f4 d7 49 bb
       -0.015451591 -0.056858838 -0.058492295 -0.0030798884
000240 ca 61 fa bc 1c c1 0c 3d b6 ad e7 3c 03 d1 7b bd
       -0.030564208 0.03436385 0.028281074 -0.061478626
000250 45 13 4a 3d 6f c3 34 3c 96 bf 3e bd ac dc 85 3c
       0.049334783 0.011032923 -0.04656943 0.016340576
000260 89 8a 4a 3d 28 2c 1d 3d 50 0f 9e 3d 6b 58 8e bd
       0.049448524 0.03837219 0.077177644 -0.06950458
000270 d7 8b 28 3c 02 ff dd 3c c8 fb 89 bd 12 4a ae bc
       0.010287247 0.027099136 -0.067374766 -0.021275554
000280 d5 18 1f 3d 99 ab 32 3d 65 c6 82 bd 0b 91 68 bc
       0.03884204 0.04362068 -0.06385497 -0.014194737
000290 7d a0 fa 3c 69 4e a7 3d 83 2a c0 bc c7 a3 d1 3d
       0.030594105 0.081692524 -0.023457771 0.10236316
0002a0 de fe 1d bd fa 0c 15 3d a6 bb 20 3d cf d8 61 bd
       -0.03857314 0.03638933 0.039241455 -0.055138405
0002b0 95 e7 15 bd d5 d7 c3 bc c7 d3 74 bd 22 fe c8 bc
       -0.036597807 -0.023906628 -0.05977228 -0.024535242
0002c0 48 ba 66 3d 2a 34 92 bd 4b ac ac 3d 2e 37 40 3d
       0.056329995 -0.07138856 0.084313 0.046927623
0002d0 85 4a aa bb 9c 7a 60 3d 55 83 9d bc d3 36 54 bd
       -0.0051968717 0.05480443 -0.019227663 -0.051810097
0002e0 3f 31 3d 3d c3 c1 27 bd 0c 3f 52 bd 33 ea 73 bd
       0.046189543 -0.04095627 -0.051329657 -0.05954952
0002f0 4b 33 bc 3d ec a2 3f 3c bb 77 b3 3d 11 9a 03 3d
       0.09189471 0.011696558 0.08763071 0.03212935
000300 fd 90 db 3c 28 af 4a bd 5c f7 5c 3d 18 d6 6a 3d
       0.026802534 -0.04948345 0.053946838 0.057333082
000310 f7 42 84 3d 4c 47 bf 3d e5 3d 82 bc 71 2d 11 3d
       0.06458085 0.09339771 -0.015898654 0.035443727
000320 4f fd 39 bc fd d0 68 3d bf c3 8d 3c bf ca aa 3d
       -0.011351897 0.05683993 0.017305253 0.08339452
000330 b9 fa ba bc ac 75 69 3d e0 34 d9 3d 7e 81 ef bd
       -0.022824632 0.056996986 0.10605788 -0.116946205
000340 05 dd cd bc d9 ec 0f bd 0a e4 9d 3d a7 45 30 bc
       -0.025129804 -0.035137985 0.077095106 -0.010758794
000350 f4 48 ff bd 18 dc 31 3d 93 ea 92 bd 9d 4e e1 bd
       -0.124650866 0.04342279 -0.07173648 -0.110013224
000360 b0 a8 75 3d a7 29 14 be d5 80 9b 3c 47 21 59 bd
       0.059975326 -0.14469014 0.01898233 -0.05301025
000370 15 31 5d 3d bc 8d 45 3d ae 72 fe 3c 57 24 71 be
       0.054001886 0.04823087 0.031060543 -0.23549019
000380 ff 3a 28 3d ef 55 72 3b 5e 44 29 3e 72 db 8e bd
       0.041071888 0.003697749 0.16529986 -0.069754496
000390 14 03 65 bd 7d cc d1 3d 31 4c 2d 3d 08 74 c2 bd
       -0.05591114 0.10244081 0.04230899 -0.094947875
0003a0 a1 ce 80 bc 31 0b 51 3e 9f 8b 51 3e f7 50 b8 bd
       -0.015723528 0.20414425 0.20463417 -0.08999818
0003b0 be 32 44 bd cc 65 94 be 63 ca cb 3d 1e e9 5f 3c
       -0.047899954 -0.28983915 0.099507116 0.013666419
0003c0 8f 4f e8 3c 7f 80 e0 bd e3 20 b3 3d 95 b3 0b be
       0.028358249 -0.10962009 0.08746507 -0.13642724
0003d0 44 ba 80 3d 32 5a 4c 3c 51 a0 7e 3d f7 08 dd bd
       0.06285527 0.012472676 0.06216461 -0.107927255
0003e0 a5 c5 5c ba 31 27 b6 bd 99 21 ce 3c 5d cc 20 bd
       -0.00084217853 -0.08894194 0.025162505 -0.039257396
0003f0 97 b7 bf bb 64 30 83 bd 57 85 90 bc d6 65 02 bd
       -0.005850743 -0.06405714 -0.017641706 -0.0318354

i2h.bias f4 [128]
000000 b1 0b 98 be f4 8b ad 3d c1 82 9f 3d 49 fa 3d 3d
       -0.2969642 0.084739596 0.07788611 0.04638127
000010 40 80 13 3e 97 6a 95 3d 6d 70 de 3d 81 61 01 bd
       0.14404392 0.07295721 0.10861287 -0.031587128
000020 b0 bd bb bd 4f af 2c 3e 22 bd 77 bd 8b 95 67 be
       -0.091670394 0.1686375 -0.060483105 -0.2261564
000030 f4 18 a0 3c ca 96 a3 be e9 5f c6 3e 41 d4 88 bd
       0.019543149 -0.3195098 0.3874505 -0.06681109
000040 66 ac f5 bd 6e e2 b8 3d 1b 92 50 be 7b 13 da 3e
       -0.11995773 0.09027563 -0.20368235 0.42592987
000050 5a 05 18 3d 46 78 03 3e c8 4e 6a be ed f1 c4 3d
       0.03711448 0.1283885 -0.22881615 0.09616456
000060 01 3d 10 3e 89 5f 38 3d a7 3c 28 be 18 bd 4b be
       0.14085771 0.045012984 -0.16429387 -0.19896352
000070 6d e5 38 3d 0c f4 ce 3c 82 ad a5 bc 3e 42 92 bd
       0.045140672 0.025262855 -0.020224337 -0.07141541
000080 5e 94 af 3e be 7b 39 3d f6 d1 d7 3d 79 4f 83 be
       0.34292883 0.045284025 0.10538094 -0.2564657
000090 7c 54 96 3e 90 15 37 3e 10 cd 95 be 71 0c 6b 3e
       0.2936133 0.17879319 -0.29258013 0.22953965
0000a0 84 12 81 be 44 64 35 be b3 77 18 be 8f d1 ae be
       -0.2520944 -0.1771403 -0.14889412 -0.34144256
0000b0 1c a7 a4 3e a5 94 08 be 4a 31 22 3d b4 15 70 bc
       0.32158744 -0.13337953 0.039597787 -0.014653612
0000c0 b0 6a b5 be aa b7 a8 be 18 49 bc 3b d5 ab 1f 3e
       -0.3543296 -0.32952625 0.005746018 0.15592892
0000d0 b4 a9 fd 3c f3 83 b1 3d 64 7f fc bc 76 15 3a bd
       0.03096471 0.086677454 -0.030822463 -0.045430623
0000e0 b7 f0 91 3e b9 6d 95 3d ee 47 98 bb be 59 d9 be
       0.28503963 0.072963186 -0.0046472466 -0.4245128
0000f0 7b 1a 32 be 12 a4 96 be 61 ee 73 3e 5c 11 d4 3e
       -0.17392914 -0.2942205 0.23821403 0.41419494
000100 35 26 da bc 1e 22 bd 3d 22 fb 89 3e 28 24 42 3e
       -0.026629547 0.09235023 0.26949412 0.18959105
000110 71 a2 b6 bc 53 f3 09 3e 3f 09 7e bd 26 f7 e7 3e
       -0.022294255 0.13471727 -0.062020537 0.45305747
000120 77 52 dd 3d 12 01 11 bf 20 12 1f 3e c2 f7 b7 bc
       0.108067445 -0.5664226 0.15534258 -0.022457007
000130 d2 79 51 be 22 0e 5d be 94 80 c1 3d a3 86 36 bc
       -0.20456627 -0.21587422 0.094483525 -0.011140498
000140 89 28 c5 be 2c 83 f5 bd 9b 84 bc bd cc aa d7 3d
       -0.38507488 -0.1198791 -0.0920498 0.10530624
000150 44 4f a9 bd 52 e0 2e 3e 74 36 cd be 45 ae cc bd
       -0.08267072 0.17077759 -0.40080607 -0.09994177
000160 c6 be 2f 3e fb 78 61 bb e6 cf 77 3e 51 79 1a bd
       0.17162618 -0.0034404385 0.242004 -0.037713353
000170 99 e3 30 3e cf 28 71 3d c1 71 e2 3d 60 f6 99 be
       0.17274322 0.05887681 0.11056853 -0.30070782
000180 f7 bb f1 3d 4d b8 23 3e 33 27 2b 3e 27 3e ee 3e
       0.118034296 0.15988274 0.16714172 0.46531793
000190 b6 9b 7b 3d e3 14 6a bd 66 94 88 bd d0 ee 96 3e
       0.061427794 -0.057148825 -0.0666893 0.29479074
0001a0 df c6 81 be d6 aa 8b be f1 03 d1 3d e2 fa 68 3e
       -0.2534704 -0.27278775 0.1020583 0.22751954
0001b0 d8 f4 8a 3e 98 79 50 3c e5 93 41 be 7d b2 61 bd
       0.27139926 0.012724303 -0.18904074 -0.05510186
0001c0 02 84 98 be 29 84 a2 be 30 14 6f 3e 42 3c a4 3e
       -0.29788214 -0.31741455 0.23347545 0.32077223
0001d0 d3 12 5f 3e 37 b0 20 be 88 d4 22 3e 4b 9a 15 3d
       0.21784525 -0.1569222 0.15901387 0.0365241
0001e0 8a 4d b4 3e df b6 0c 3d 04 21 5d be e1 92 87 bd
       0.35215408 0.034354087 -0.21594626 -0.06619812
0001f0 5c 09 a7 3e bd 00 67 be 94 68 d7 3b ed df 94 3e
       0.32624328 -0.22558875 0.006573746 0.29077092

i2o.weight f4 [59, 205]
000000 91 78 44 bd 84 6d e8 3c 8b 57 7d bd cc 57 a5 3d
       -0.047966544 0.028372534 -0.061851066 0.080733865
000010 26 8d d1 3c ce 32 20 3d 80 f5 3b 3d 35 b8 8c 3d
       0.02558 0.03911095 0.045888424 0.06871072
000020 49 41 af 3c d2 43 97 3d 8d 48 a0 3c c3 35 16 be
       0.021393435 0.073859826 0.019565845 -0.14668946
000030 5c 23 03 3e 14 71 16 3e b9 7d b9 bd 81 45 0c bd
       0.12806457 0.14691573 -0.09057183 -0.03424597
000040 2c 2f 12 3d 74 ca 91 bd 94 e7 b6 bd b7 74 63 3d
       0.035689518 -0.07118693 -0.08930889 0.05553123
000050 60 fe 78 be 20 5c eb 3c 69 1a 63 bd 6f ce d5 3c
       -0.24315786 0.028730452 -0.05544511 0.026099412
000060 62 66 cc 3c d4 4c e3 3d 2c ed 1e 3d 92 e2 b4 3d
       0.024951164 0.11098638 0.038800403 0.08832277
000070 1c de 63 bc 57 0a ef bc b2 63 c3 bc a5 54 7e 3c
       -0.0139079355 -0.029179735 -0.02385125 0.0155231105
000080 5f 8d a8 bd c7 3d ff 3b fd 02 28 bd 0f f3 0c 3e
       -0.082300894 0.007789347 -0.041018475 0.13764594
000090 1b 0e 34 be f6 81 dd 3c ca 88 fc 3c b7 33 21 3e
       -0.17583506 0.02703951 0.030826945 0.15742384
0000a0 38 45 f6 3c d6 76 31 bd ed 66 8e bc dd d0 a7 3c
       0.030062303 -0.04332622 -0.017383063 0.020485336
0000b0 88 3d 10 be 89 b2 96 3d 66 22 10 be 91 21 85 3d
       -0.14085972 0.07358272 -0.14075622 0.06500543
0000c0 49 37 32 bd 41 71 bd 3c c1 f4 d0 3c a1 32 ac 3c
       -0.043509755 0.023125293 0.025507333 0.021020235
0000d0 25 f8 8f bd 75 3e b5 bc 70 06 9e 3d 93 33 69 3c
       -0.07029752 -0.022124508 0.077160716 0.014233488
0000e0 e0 72 a1 3d 23 86 4e 3d 03 e1 27 be 09 de 76 3c
       0.07883239 0.05042089 -0.16394429 0.015067586
0000f0 99 1b 93 3b a6 44 28 3c 03 8c a6 bc 92 52 c9 3c
       0.004489374 0.010270273 -0.020330435 0.024575505
000100 bf 57 3a bc 84 83 93 3d 3b fc cf b9 33 c3 3c bd
       -0.011373459 0.07202819 -0.00039670043 -0.046084594
000110 07 41 3b 3c 58 db 1f bd e5 9b 5d 3d 57 a6 08 bd
       0.011429078 -0.039027542 0.05410375 -0.03336176
000120 e4 57 94 bc 0e 70 88 3d 09 c3 94 bd a9 98 80 3d
       -0.018108316 0.06661998 -0.072637625 0.062791176
000130 32 d7 6a 3d 0b 68 07 bd 3d cb d0 bc 0f e6 22 bd
       0.057334132 -0.033058207 -0.025487537 -0.039770182
000140 29 96 cb 3d d8 26 3f bd 9d e1 b3 bb a7 1d 5b bb
       0.0994075 -0.046667904 -0.0054895417 -0.0033434422
000150 27 2f 98 3d d6 19 a6 bc ba 48 17 bc e8 97 d6 3c
       0.074308686 -0.020275991 -0.009233648 0.026195481
000160 54 4f 2f bb 07 20 a8 3d 9b 72 ec bb cf 9f 8c bd
       -0.0026750164 0.08209234 -0.0072158105 -0.068664186
000170 b1 0b 9d 3c 50 8d 7c bc c9 5a 93 3d 52 6a 45 bd
       0.019170614 -0.015414551 0.0719505 -0.048197098
000180 81 b6 85 3d 02 8e 65 bd 84 7a 12 3b 64 3d 2a bc
       0.065289505 -0.056043632 0.0022350857 -0.010390613
000190 33 cf 85 3c 79 ad 85 bc fc 87 86 3c ce 4e 7b bd
       0.016334152 -0.01631807 0.016422264 -0.06135445
0001a0 c6 8a ab 3d 29 ec e2 3d c5 8c 07 bc 71 09 79 bc
       0.08376078 0.110802 -0.008273308 -0.015200005
0001b0 79 ec 6b bc fd 0c 52 3d 26 69 08 3d a9 32 b1 bc
       -0.014399641 0.051281918 0.033303402 -0.021630602
0001c0 ba a4 ee bc a7 7e 52 3d f8 21 97 bc 6b ec 93 bc
       -0.029131282 0.051390316 -0.018448815 -0.018057069
0001d0 31 ad 24 3d 5f 7f 8a bc 14 8a 52 bd c8 5f c2 bd
       0.04020423 -0.016906438 -0.051401213 -0.09490925
0001e0 92 23 3b 3d 90 12 38 bd 1a a4 34 bb 7e 8b bc bd
       0.04568822 -0.044939578 -0.0027563632 -0.092062935
0001f0 82 21 33 3d b2 24 a9 3d fd c3 95 38 e4 9f 02 bd
       0.043733127 0.08258952 7.141379e-05 -0.031890765
000200 8a 04 12 bd 23 09 01 3c 42 40 71 3c 12 f3 9e bc
       -0.03564886 0.0078757135 0.014724793 -0.019403014
000210 46 3c d4 bb fa 13 22 bd 65 87 e0 3c a3 86 0e bc
       -0.0064769117 -0.039569832 0.027408311 -0.008699092
000220 fa d7 80 3d 50 00 94 bd 88 29 ea 3a fb 9d 51 3d
       0.06291194 -0.07226622 0.001786516 0.051176053
000230 35 ca 92 bd b3 56 21 3c 19 b8 7f 3d 70 eb ef 3c
       -0.07167474 0.009847331 0.06243143 0.02928707
000240 f3 2a 06 3d e8 d9 4b bd 03 27 72 3d 5d 4a ba 3b
       0.032755803 -0.04976836 0.059119236 0.0056851343
000250 51 5e 06 3b fe 76 65 3d f1 92 01 3d a8 8f d0 3c
       0.0020502994 0.056021683 0.031634275 0.025459126
000260 45 43 16 3d 09 cf 25 bd f5 84 1c bc bd 9c f4 bb
       0.036685247 -0.040480647 -0.009553184 -0.0074649737
000270 18 af 43 3d 51 e2 8a 3d 53 2e 28 3c 8c 9f 3b bd
       0.047774404 0.06781448 0.010264951 -0.045806453
000280 b6 d5 1f 3c 1b b5 a5 bc 17 2f 40 bd 0f 14 9d bd
       0.0097555425 -0.02022796 -0.04691991 -0.076698415
000290 98 92 fa 3c 63 4b d7 3c 6d 7a fa 3c 98 8c 2c bd
       0.03058748 0.026281064 0.030575955 -0.04212627
0002a0 7c 48 18 bd b8 d5 ab bc 50 a1 41 bd ba 06 c1 bd
       -0.0371785 -0.020975932 -0.04727298 -0.09425111
0002b0 74 76 c0 ba 7c 16 e0 3c ea 99 6b bd 24 20 63 3d
       -0.0014683739 0.027354471 -0.05751983 0.055450574
0002c0 03 f2 15 3c 22 bc 2c bd 9d 55 96 ba da 45 e3 ba
       0.009151938 -0.042171605 -0.0011469607 -0.0017339543
0002d0 6f a7 e2 bc ea 55 74 bd 86 33 38 bc 64 89 87 3d
       -0.02766773 -0.059652247 -0.011242753 0.06618002
0002e0 64 16 f8 bc 01 3f fa 3c 2d 5a 5f bc 03 32 ee 3c
       -0.030284114 0.03054762 -0.013632339 0.029076582
0002f0 c4 28 0a 3d ff 18 16 3c 5b 07 0e 3d 08 b0 23 3d
       0.033730283 0.009161233 0.034674983 0.0399628
000300 2e a4 78 3d ab c9 c4 bc db 4b 79 3d 17 42 29 3d
       0.06070345 -0.024021944 0.060863357 0.041322794
000310 9f 35 8f bd 91 11 e4 3c ae 70 97 3c 5e 0e 87 bd
       -0.06992649 0.027840408 0.018486347 -0.06594537
000320 a3 c7 9d bc 94 84 43 3d 23 a1 fc 3c 1f 50 13 3d
       -0.019260233 0.04773386 0.030838555 0.03596508
000330 d1 b4 27 3d da a3 d9 bd 6b 03 c4 bc b3 b2 57 3d
       0.040943924 -0.10626955 -0.023927411 0.052660655
000340 b0 35 b3 bc 40 6e 17 3d 8e 05 10 bd 92 fc 90 3d
       -0.021876186 0.036970377 -0.035161547 0.07079424
000350 2a cf 1c 3d 2d cf 46 bd 33 e1 2a bd 3d 89 a2 bb
       0.038283505 -0.048537422 -0.041718673 -0.0049602077
000360 ae 19 64 3c 41 4a a6 3d ed 07 3d bd fb 18 88 3c
       0.013922138 0.081196316 -0.046150137 0.016613474
000370 e8 ca c4 3d ef 99 ea 3c 7d 5f 9b 3d 62 34 15 3e
       0.09609014 0.028637854 0.07586572 0.14570764
000380 6d 46 95 bd 43 57 b6 bb 0f 0a a7 bd f0 bd 63 3e
       -0.07288823 -0.0055646016 -0.081562154 0.22240424
000390 4e 96 da 3b d6 e0 13 bd d0 f3 5a 3a aa ee e6 3c
       0.0066707497 -0.036103092 0.0008352371 0.028189976
0003a0 f9 2e e2 bc da 5f fe bd 1d 09 d8 bd 90 97 94 bd
       -0.027610289 -0.12420626 -0.10548613 -0.07255471
0003b0 5b 4b 10 bd 7b 87 b1 3e 84 ac 71 39 8e 9b eb 3c
       -0.035228115 0.34673676 0.00023047818 0.028760698
0003c0 58 88 32 bd fe 93 76 bd f9 b9 dd bc 49 f1 7a 3d
       -0.04358706 -0.06019973 -0.027066218 0.061265264
0003d0 8f d4 12 bd ba 5b 7f 3c 33 8b 8d bd 51 f8 dc bc
       -0.035847243 0.015585834 -0.06911316 -0.026973875
0003e0 16 de 30 bd 82 73 ae 3d a2 8f 2f bd e9 5b 5e bd
       -0.043180548 0.08518125 -0.04286159 -0.05428687
0003f0 4a 4b 03 bd 71 86 d1 3d 25 aa 1c bd af d3 89 3d
       -0.032054223 0.10230721 -0.0382482 0.067298286

i2o.bias f4 [59]
000000 e0 36 4d 3e fc 84 3b 3e e7 9e 9d 3e cf 7e 45 be
       0.20040464 0.18312448 0.30785295 -0.19286655
000010 29 b1 aa be 00 a3 bb 3d c9 3a 64 be 44 9d df 3d
       -0.33338287 0.09161949 -0.2228805 0.10918668
000020 e7 4b ab bc ee fa 33 3e 82 a4 a8 3c ea 2f 88 be
       -0.020910216 0.17576191 0.020586256 -0.26599056
000030 a9 9f 08 3e 94 56 46 3d 64 61 8d 3c 9d cc 2c bd
       0.13342156 0.04842241 0.017258354 -0.042187322
000040 1b 8a cc bd 17 a6 15 3e 07 d6 78 3d 0b 1b ad be
       -0.09987279 0.1461414 0.060750987 -0.33809695
000050 94 08 a4 be ab 70 43 3e e3 01 a6 be 46 8f da bc
       -0.32037795 0.19085948 -0.32423314 -0.026679646
000060 67 a5 30 3d f5 f4 71 3e 55 47 b4 bd 3d 2a 82 bc
       0.04312649 0.236286 -0.08802668 -0.015889281
000070 52 a3 cb bd 13 ae 3a be 0c ec 8a 3c 85 7e f0 3e
       -0.0994326 -0.18230467 0.016958259 0.46971527
000080 08 ef 85 3e d6 41 06 be 76 75 4b bd 0c c9 fc 3d
       0.2615893 -0.13111052 -0.049672566 0.12343034
000090 35 1f 7e bd c1 8b 5b be fa 31 83 3e 5b 7e 7a be
       -0.06204148 -0.2144003 0.25624067 -0.24462263
0000a0 bb 31 24 bc f0 4d a4 bb e7 6b 1d be dc f7 be 3d
       -0.010021622 -0.0050141737 -0.15373193 0.09324619
0000b0 ed d9 92 3d 8b 0f 30 3e 8d 6e 44 3c 96 4e 97 3d
       0.07170472 0.17193429 0.011989248 0.07388036
0000c0 0b b3 1b be 6a c6 81 be 06 d4 8a bd 3b 88 96 bd
       -0.15205018 -0.2534669 -0.067787215 -0.07350203
0000d0 87 00 f6 bd 10 9d 77 3e ba 7d d1 3d ce f3 b6 bd
       -0.12011819 0.24181008 0.102290586 -0.08933221
0000e0 bf 76 15 3e e9 e6 53 3e a1 27 2e 3e
       0.1459608 0.20693554 0.17007305

o2o.weight f4 [59, 187]
000000 72 2f 56 3e 74 93 71 3e 83 78 50 3e c5 bf 91 3e
       0.20916536 0.23591405 0.20358472 0.2846662
000010 9f df 48 bc df 30 28 3e f4 06 ba 3d 5c a6 4a be
       -0.012260347 0.16424893 0.090833575 -0.19790024
000020 9b 26 6a bc 5e 70 b7 bd 40 50 2f bd 77 1e 83 bd
       -0.014291431 -0.08956979 -0.04280114 -0.06402295
000030 e1 2d 21 bc f0 5c a6 be d5 6d 22 3e a5 d9 30 be
       -0.009837599 -0.3249278 0.1586221 -0.17270525
000040 ee a6 09 be e7 21 9f 3c f4 e3 92 be 15 92 45 3e
       -0.13442585 0.019425346 -0.2868954 0.19294007
000050 e7 4a a5 bd 59 ee 4b be d3 26 73 3c 52 1d 9f be
       -0.08070927 -0.19915141 0.014840799 -0.31077057
000060 57 47 fe bd 3d 5e 70 be 01 7e e8 bd 8e c9 5e be
       -0.12415951 -0.23473449 -0.11352158 -0.21756575
000070 c0 fc 29 be 30 d9 22 be 4d a5 96 3e c7 0e 4a bd
       -0.16600323 -0.15903163 0.2942299 -0.0493305
000080 dd b9 6f 3e 77 50 24 be 4a c1 86 bd d0 12 ab bc
       0.23410745 -0.1604632 -0.06579836 -0.020882994
000090 c1 c6 86 3e d6 1c 8a 3e 71 fe f7 bd 54 53 a3 3c
       0.26323512 0.26975125 -0.12109078 0.019937195
0000a0 18 8b 8d be 74 48 4c bd 6a 5f 43 be d3 6f 81 bd
       -0.27645183 -0.049873784 -0.19079366 -0.06320157
0000b0 79 99 97 3d 07 c5 da bc 63 ec 7e be c1 b4 16 3e
       0.074023195 -0.026705278 -0.24894862 0.1471739
0000c0 4a 26 a1 bd 2b 76 31 be ca 09 92 bd 62 20 04 be
       -0.07868631 -0.17330234 -0.07130773 -0.12902978
0000d0 3c d9 95 3d 5a fd 2a be fe b6 29 3e bc 4e 9c 3d
       0.07316825 -0.16698208 0.16573712 0.07632205
0000e0 f9 50 33 be 71 73 23 3e cb 29 81 be 7e fa 12 be
       -0.17511357 0.15962006 -0.25227198 -0.14353368
0000f0 af a6 cb be 04 7e 31 be f3 3c 01 3e 90 27 2d 3e
       -0.39775607 -0.17333227 0.12620907 0.16909623
000100 d8 ca b3 3c a4 b6 95 3e 94 a3 41 3e e0 af 8b 3e
       0.02194731 0.29240906 0.18910056 0.2728262
000110 45 7d 13 3e c7 5d 9c bd 54 8b 2f be 3d 30 ba 3d
       0.14403255 -0.07635074 -0.17142993 0.09091232
000120 5f 8a 11 be 68 ea 23 be 21 db c5 3e fc ca 91 bd
       -0.1421294 -0.16007388 0.38643745 -0.07118794
000130 08 c7 09 be a5 8f 42 be c1 fd e0 bb 45 47 cc 3c
       -0.1345483 -0.19000109 -0.0068661873 0.024936328
000140 16 a9 34 be 9c f4 55 3e 70 f0 20 3e 86 e3 32 bd
       -0.17642626 0.20894092 0.1571672 -0.043674015
000150 86 ac 55 bd f8 54 8b 3d c2 a0 1b be 46 b1 8e 3c
       -0.052166484 0.06803316 -0.15198043 0.017418515
000160 8f 87 58 be 02 04 89 bd c2 e6 bf 3d 10 bd 2f 3e
       -0.21145461 -0.066902176 0.093701854 0.17161965
000170 70 9b 65 be 6e 07 87 bc 1d 3f c0 bd 9f d4 00 3e
       -0.22422576 -0.016483035 -0.09387038 0.12581109
000180 3a 0e c5 bc 08 d1 bb 3e a8 0a c0 bd fe 1b 03 3e
       -0.024054635 0.36682916 -0.093770325 0.12803647
000190 1a cb 0b 3d 47 7b a9 3d 08 26 3d 3e a3 e3 1d bd
       0.03412924 0.082754664 0.18471539 -0.03854717
0001a0 3b e8 5e bd 39 9b c5 be 42 c4 83 be 96 7f 2b be
       -0.05442069 -0.38594988 -0.2573567 -0.16747889
0001b0 1c a3 c2 3d 5e 2b 32 3d fe 90 46 3e 81 1d c1 3d
       0.09503767 0.04349839 0.19391248 0.094294555
0001c0 88 39 53 bc 6f f5 60 be 34 fb 30 bd 44 7c 6c 3e
       -0.0128921345 -0.21968625 -0.043208316 0.23094279
0001d0 13 c9 d2 3d c5 23 99 be 3c c8 ab 3d ad df 4b 3e
       0.10292258 -0.29910102 0.08387801 0.19909544
0001e0 6a e7 36 3c b3 17 ca 3c 1f 3c 84 be 0c 71 98 be
       0.011163572 0.024669504 -0.2582712 -0.29773748
0001f0 e4 10 85 3e 20 35 ac bd 73 51 a8 bd 67 e8 5f bc
       0.2598945 -0.0840857 -0.0821866 -0.013666249
000200 92 4a 56 3e d0 19 87 be 5c 16 2a be 44 8e 9f 3d
       0.20926884 -0.2638688 -0.16610092 0.07790807
000210 e8 72 67 be 1a 24 30 be 8d e6 f1 bd 4f ea 98 bd
       -0.22602427 -0.17201272 -0.11811552 -0.07466566
000220 48 6d 05 be 0d f7 6f 3d 0e 65 db bd 6c 35 52 3c
       -0.13029969 0.058585215 -0.10712634 0.01283012
000230 a0 71 8e bd 2e 50 51 3e 91 61 14 3c d7 af ff 3d
       -0.06955266 0.20440742 0.009056465 0.12484711
000240 82 c7 b1 bd 91 89 92 3c d0 b3 dc bd 3b c1 d4 bc
       -0.08680631 0.017887862 -0.10776484 -0.025971046
000250 be 9d ec bd 12 74 f3 bd f2 d2 90 be 89 a2 25 3e
       -0.115535244 -0.11887373 -0.28285939 0.16175283
000260 3b 8f 24 be e8 a9 a6 3e 17 78 91 be ce d5 20 be
       -0.16070263 0.32551503 -0.28411934 -0.1570656
000270 61 ff 99 bc 02 84 c1 3d 03 e5 43 3d f6 a5 bf bd
       -0.018798532 0.094490066 0.047825824 -0.093578264
000280 dc 12 f7 3d be 0f 4d be e8 9e 16 3e 40 aa 40 be
       0.12064144 -0.20025536 0.14709055 -0.18814945
000290 8b 30 38 3d 13 4c 85 bd 42 e6 1c bc e2 49 85 3e
       0.04496817 -0.06508651 -0.009576382 0.2603293
0002a0 db ce 43 be c9 d9 72 3b 9d 74 8d bd 7f 5d b2 bd
       -0.19121878 0.003705608 -0.06907008 -0.08709239
0002b0 c2 60 0f bd 45 de 9d 3d df ac 99 bd 20 2f af 3c
       -0.035004385 0.0770841 -0.07503676 0.021384776
0002c0 ce 41 32 3a ee 1d 47 be ab fe 15 bc d5 07 40 be
       0.0006799967 -0.19445011 -0.009154956 -0.18752988
0002d0 a2 0e 43 3d d2 00 2d 3e bf 1f a9 3d 87 cb 37 bd
       0.047621377 0.16894844 0.08258008 -0.044871833
0002e0 6a 2c ff 3d 1f c8 10 3e 59 9d 3e bd e8 e6 f5 3c
       0.12459643 0.1413884 -0.046536777 0.030017331
0002f0 a3 f1 cc bc 7c 16 f2 3c b1 84 08 3d b5 48 9d bc
       -0.025017565 0.029551737 0.03332967 -0.019199708
000300 9b 84 14 be 07 b6 e7 bd 21 a4 14 3e 8a e1 22 bd
       -0.1450371 -0.11314016 0.14515735 -0.039765872
000310 a8 ac d2 bd 04 38 ed 3d 48 60 32 be 5f 11 14 3d
       -0.10286838 0.1158295 -0.17419541 0.03614938
000320 75 02 a5 3d 02 7c 40 3d 7f 9c 2c 3d a0 40 10 3c
       0.08057109 0.046993263 0.042141434 0.00880447
000330 2e d4 3a 3b 3e 3d ea bd 5e 5f 0e bc df 2b 02 3e
       0.0028507817 -0.11437462 -0.0086897295 0.12712048
000340 6e fa 57 bc b3 14 0d 3c 34 91 a7 bc 97 f3 e0 bc
       -0.013182266 0.008610892 -0.02045498 -0.027459903
000350 5a 0b 88 3d 1a 7d 97 3d 45 da ab 3d 25 c0 df 3d
       0.0664279 0.07396908 0.08391241 0.109253205
000360 1e f1 80 bd d9 91 be bd 3d e1 0b bd 55 63 a2 3d
       -0.062959895 -0.09305162 -0.03415035 0.07929102
000370 4c cd 1e bd 61 9b 98 3c 29 d1 3f 3d 8d 68 50 bd
       -0.038770005 0.018628778 0.04683033 -0.050880957
000380 b4 b9 97 bc c4 a4 f4 bc 54 28 f0 3d 30 12 11 3b
       -0.018521167 -0.029863723 0.11726442 0.0022136085
000390 00 70 e7 bd d2 00 02 3e 41 16 ea bd cd c2 f3 3d
       -0.11300659 0.12695625 -0.11430026 0.1190239
0003a0 d4 a0 53 bd 85 8e a9 3d 26 72 cb 3d 96 a4 55 bc
       -0.05166705 0.082791366 0.099338815 -0.013039729
0003b0 20 c5 d6 bb b5 ce a5 bd 6c ad a8 bc f1 89 8a bd
       -0.006554261 -0.08096067 -0.020590506 -0.067645915
0003c0 28 23 f2 ba 84 ca f0 bd ea 6d c1 bd fc 65 8d bd
       -0.0018473612 -0.11757377 -0.094447926 -0.069042176
0003d0 55 5f 35 3c 72 1d d3 3d 7e 1d 01 be d1 af d6 3d
       0.011070092 0.103083506 -0.12608907 0.10482753
0003e0 80 52 ac bc 4c 12 46 3d c1 1f da 3c 42 0c c5 3c
       -0.021035433 0.048357293 0.02662647 0.024053697
0003f0 6f d9 3e 3d ea a9 a1 bb 66 d3 6a 3d 65 55 fb 3c
       0.04659408 -0.0049335854 0.05733051 0.030680368

o2o.bias f4 [59]
000000 2e d2 02 3f e9 a5 bb bc 03 2a 72 3d 89 be 8e bd
       0.5110196 -0.02290626 0.059122097 -0.069699354
000010 72 eb a6 3e ed 81 39 be 19 b3 da ba d7 92 57 3e
       0.32601506 -0.18115969 -0.0016685455 0.21052109
000020 19 ca aa 3e 39 42 43 be f7 2d c9 bc f4 3e 1e 3e
       0.33357313 -0.1906823 -0.02455805 0.15453702
000030 88 3b 43 bd a5 3b f3 3d f0 64 d9 3e de 7c b4 bd
       -0.047664195 0.11876611 0.42459822 -0.08812879
000040 0f 4e 77 be 73 a4 55 3e 2e fa d3 3d b9 d4 1a 3e
       -0.2415087 0.20863514 0.10350452 0.1512021
000050 3d af a1 3e a5 1c 3a bd 78 ee 37 3b f4 19 23 be
       0.3157901 -0.045437474 0.0028065722 -0.15927869
000060 4b 39 b9 bd a9 84 98 bd 27 a2 5b be 4a 41 0d be
       -0.09044131 -0.07447178 -0.21448575 -0.13794437
000070 94 56 23 be 3d 66 11 be af 50 8c be 0b 04 35 be
       -0.15950996 -0.14199157 -0.27405307 -0.17677324
000080 a8 b4 5c be fe d5 43 be bd 5c 38 be 5c 78 5c be
       -0.2155329 -0.191246 -0.18004127 -0.21530288
000090 35 ea fc bd 42 a0 79 be 13 40 26 be b8 be 3b be
       -0.12349359 -0.2437754 -0.1623538 -0.18334472
0000a0 a3 9a 64 be 1d f2 6a be fc 9e 8d be c5 28 2b be
       -0.22324614 -0.22943921 -0.27660358 -0.16714771
0000b0 98 60 70 be ed 6c 82 be da ca 59 be e9 41 95 be
       -0.23474348 -0.2547373 -0.21268788 -0.29151848
0000c0 54 b1 4b be 12 8c 68 be 7f 1a 80 be 1d 49 77 be
       -0.19891864 -0.22709683 -0.25020215 -0.24148984
0000d0 49 52 32 be d5 23 33 be 2c 1f 4f be 62 80 58 be
       -0.17414202 -0.17494138 -0.20226735 -0.21142724
0000e0 61 b0 37 3e 1c f9 59 be b3 f1 0a bc
       0.17938377 -0.21286434 -0.008480477
